{"format": "layers-model", "generatedBy": "keras v3.13.2", "convertedBy": "TensorFlow.js Converter v4.22.0", "modelTopology": {"keras_version": "3.13.2", "backend": "tensorflow", "model_config": {"class_name": "Functional", "config": {"name": "decoder", "trainable": true, "layers": [{"class_name": "InputLayer", "config": {"dtype": "float32", "sparse": false, "name": "input_layer_5", "batch_input_shape": [null, 2]}, "name": "input_layer_5", "inbound_nodes": []}, {"class_name": "Dense", "config": {"name": "dense_5", "trainable": true, "dtype": "float32", "units": 3136, "activation": "relu", "use_bias": true, "kernel_initializer": {"class_name": "GlorotUniform", "config": {"seed": null}}, "bias_initializer": {"class_name": "Zeros", "config": {}}, "kernel_regularizer": null, "bias_regularizer": null, "kernel_constraint": null, "bias_constraint": null, "quantization_config": null}, "name": "dense_5", "inbound_nodes": [{"args": [{"class_name": "__keras_tensor__", "config": {"shape": [null, 2], "dtype": "float32", "keras_history": ["input_layer_5", 0, 0]}}], "kwargs": {}}]}, {"class_name": "Reshape", "config": {"name": "reshape_2", "trainable": true, "dtype": "float32", "target_shape": [7, 7, 64]}, "name": "reshape_2", "inbound_nodes": [{"args": [{"class_name": "__keras_tensor__", "config": {"shape": [null, 3136], "dtype": "float32", "keras_history": ["dense_5", 0, 0]}}], "kwargs": {}}]}, {"class_name": "Conv2DTranspose", "config": {"name": "conv2d_transpose_6", "trainable": true, "dtype": "float32", "filters": 64, "kernel_size": [3, 3], "strides": [2, 2], "padding": "same", "data_format": "channels_last", "dilation_rate": [1, 1], "activation": "relu", "use_bias": true, "kernel_initializer": {"class_name": "GlorotUniform", "config": {"seed": null}}, "bias_initializer": {"class_name": "Zeros", "config": {}}, "kernel_regularizer": null, "bias_regularizer": null, "activity_regularizer": null, "kernel_constraint": null, "bias_constraint": null}, "name": "conv2d_transpose_6", "inbound_nodes": [{"args": [{"class_name": "__keras_tensor__", "config": {"shape": [null, 7, 7, 64], "dtype": "float32", "keras_history": ["reshape_2", 0, 0]}}], "kwargs": {}}]}, {"class_name": "Conv2DTranspose", "config": {"name": "conv2d_transpose_7", "trainable": true, "dtype": "float32", "filters": 32, "kernel_size": [3, 3], "strides": [2, 2], "padding": "same", "data_format": "channels_last", "dilation_rate": [1, 1], "activation": "relu", "use_bias": true, "kernel_initializer": {"class_name": "GlorotUniform", "config": {"seed": null}}, "bias_initializer": {"class_name": "Zeros", "config": {}}, "kernel_regularizer": null, "bias_regularizer": null, "activity_regularizer": null, "kernel_constraint": null, "bias_constraint": null}, "name": "conv2d_transpose_7", "inbound_nodes": [{"args": [{"class_name": "__keras_tensor__", "config": {"shape": [null, 14, 14, 64], "dtype": "float32", "keras_history": ["conv2d_transpose_6", 0, 0]}}], "kwargs": {}}]}, {"class_name": "Conv2DTranspose", "config": {"name": "conv2d_transpose_8", "trainable": true, "dtype": "float32", "filters": 1, "kernel_size": [3, 3], "strides": [1, 1], "padding": "same", "data_format": "channels_last", "dilation_rate": [1, 1], "activation": "sigmoid", "use_bias": true, "kernel_initializer": {"class_name": "GlorotUniform", "config": {"seed": null}}, "bias_initializer": {"class_name": "Zeros", "config": {}}, "kernel_regularizer": null, "bias_regularizer": null, "activity_regularizer": null, "kernel_constraint": null, "bias_constraint": null}, "name": "conv2d_transpose_8", "inbound_nodes": [{"args": [{"class_name": "__keras_tensor__", "config": {"shape": [null, 28, 28, 32], "dtype": "float32", "keras_history": ["conv2d_transpose_7", 0, 0]}}], "kwargs": {}}]}], "input_layers": ["input_layer_5", 0, 0], "output_layers": ["conv2d_transpose_8", 0, 0]}}}, "weightsManifest": [{"paths": ["weights.bin"], "weights": [{"name": "conv2d_transpose_6/kernel", "shape": [3, 3, 64, 64], "dtype": "float32"}, {"name": "conv2d_transpose_6/bias", "shape": [64], "dtype": "float32"}, {"name": "conv2d_transpose_7/kernel", "shape": [3, 3, 32, 64], "dtype": "float32"}, {"name": "conv2d_transpose_7/bias", "shape": [32], "dtype": "float32"}, {"name": "conv2d_transpose_8/kernel", "shape": [3, 3, 1, 32], "dtype": "float32"}, {"name": "conv2d_transpose_8/bias", "shape": [1], "dtype": "float32"}, {"name": "dense_5/kernel", "shape": [2, 3136], "dtype": "float32"}, {"name": "dense_5/bias", "shape": [3136], "dtype": "float32"}]}]}